…
          "height": 655
        },
        "outputId": "85d59044-6770-4ffd-f9c5-d45da6f84c41"
      },
      "source": [
        "model.summary()"
      ],
      "execution_count": 198,
      "outputs": [
        {
          "output_type": "stream",
          "text": [
            "Model: \"sequential_31\"\n",
            "_________________________________________________________________\n",
            "Layer (type)                 Output Shape              Param #   \n",
            "=================================================================\n",
            "conv2d_159 (Conv2D)          (None, 26, 26, 32)        320       \n",
            "_________________________________________________________________\n",
            "conv2d_160 (Conv2D)          (None, 24, 24, 64)        18496     \n",
            "_________________________________________________________________\n",
            "max_pooling2d_83 (MaxPooling (None, 12, 12, 64)        0         \n",
            "_________________________________________________________________\n",
            "dropout_25 (Dropout)         (None, 12, 12, 64)        0         \n",
            "_________________________________________________________________\n",
            "conv2d_161 (Conv2D)          (None, 10, 10, 128)       73856     \n",
            "_________________________________________________________________\n",
            "conv2d_162 (Conv2D)          (None, 8, 8, 256)         295168    \n",
            "_________________________________________________________________\n",
            "max_pooling2d_84 (MaxPooling (None, 4, 4, 256)         0         \n",
            "_________________________________________________________________\n",
            "dropout_26 (Dropout)         (None, 4, 4, 256)         0         \n",
            "_________________________________________________________________\n",
            "conv2d_163 (Conv2D)          (None, 2, 2, 512)         1180160   \n",
            "_________________________________________________________________\n",
            "max_pooling2d_85 (MaxPooling (None, 1, 1, 512)         0         \n",
            "_________________________________________________________________\n",
            "dropout_27 (Dropout)         (None, 1, 1, 512)         0         \n",
            "_________________________________________________________________\n",
            "flatten_17 (Flatten)         (None, 512)               0         \n",
            "_________________________________________________________________\n",
            "dense_34 (Dense)             (None, 1024)              525312    \n",
            "_________________________________________________________________\n",
            "dropout_28 (Dropout)         (None, 1024)              0         \n",
            "_________________________________________________________________\n",
            "dense_35 (Dense)             (None, 10)                10250     \n",
            "=================================================================\n",
            "Total params: 2,103,562\n",
            "Trainable params: 2,103,562\n",
            "Non-trainable params: 0\n",
            "_________________________________________________________________\n"
          ],
          "name": "stdout"
        }
      ]
    },
    {
      "cell_type": "code",
      "metadata": {
…
